mnist_model.pth (torch, 52647 bytes, 38 tensors)

conv1.weight f4 [8, 1, 3, 3]
0.40120596 0.38871557 0.4274733 -0.9285767 -0.66804063 0.36285692 -0.5182463 -0.36983377
0.796705 -1.321347 -1.181211 -0.73931926 0.33035925 0.09284102 -1.1302023 0.6490643
0.39715433 -0.14688691 -0.20732948 0.38289666 0.4827109 -1.3688523 -0.026570156 0.39929256
-0.20441501 -1.0872165 -0.94241965 0.6473639 -0.737134 -0.51813453 0.81943667 -0.97230536
0.088283256 0.08067846 -1.0061126 -0.0073313173 0.15512215 -0.057141505 -1.0815717 -0.92825663
-1.1159916 0.12728894 -0.99773943 0.3940669 0.7141531 -0.1560388 -0.16038953 -0.65902287
0.23783211 0.30989808 -0.64351225 -0.19945975 1.0089859 0.9123478 -0.7757006 -0.56596017
0.3773 -0.31250748 0.11702233 0.49352708 -1.0097712 -0.70676327 0.17335993 0.6333242
0.6029517 0.61222297 0.5759419 -0.019107519 0.05748913 -0.24066535 -1.0101463 -1.0045305
00000000: de6a cd3e ba05 c73e c8dd da3e 34b7 6dbf
00000010: b604 2bbf 62c8 b93e caab 04bf da5a bdbe
00000020: dcf4 4b3f e621 a9bf ec31 97bf 0744 3dbf
00000030: d924 a93e 6f23 be3d 78aa 90bf 1429 263f
00000040: d057 cb3e 8669 16be 2e4e 54be 080b c43e
00000050: e225 f73e 8d36 afbf a8a9 d9bc 1370 cc3e
00000060: 2b52 51be e929 8bbf 6a42 71bf a4b9 253f
00000070: d0b4 3cbf 77a4 04bf 9ac6 513f 01e9 78bf
00000080: dacd b43d c03a a53d 4cc8 80bf 8c3b f0bb
00000090: 57d8 1e3e 360d 6abd f170 8abf 3aa2 6dbf
000000a0: d0d8 8ebf 0858 023e da6b 7fbf 23c3 c93e
000000b0: bdd2 363f a3c8 1fbe 273d 24be b9b5 28bf
000000c0: 438a 733e f6aa 9e3e 38bd 24bf 2d3f 4cbe
000000d0: 7326 813f a08f 693f 5194 46bf c4e2 10bf
000000e0: 772d c13e fb00 a0be 67a9 ef3d 95af fc3e
000000f0: 2f40 81bf 70ee 34bf 4485 313e 8921 223f
00000100: 0b5b 1a3f a5ba 1c3f ee70 133f 5f87 9cbc
00000110: b979 6b3d fa70 76be 794c 81bf 7594 80bf

conv1.bias f4 [8]
0.29452428 0.5249699 -1.0970721 -0.34604213 -0.15245983 -0.756291 0.4439647 0.094376385
00000000: e3cb 963e 6d64 063f dc6c 8cbf 6f2c b1be
00000010: 6e1e 1cbe 499c 41bf 574f e33e 6848 c13d

conv2.weight f4 [16, 8, 3, 3]
-0.24084482 -0.11324167 0.6293269 -0.4476188 0.70427626 0.5282267 -0.47406358 0.15574017
0.25293082 -0.030208815 -0.031230055 -0.18343236 -0.48934123 -0.18722461 -0.51919127 0.048966315
-0.1817474 -0.52398634 0.020698205 -0.049376786 -0.18456924 0.3519128 0.15783545 0.13028465
0.6256291 0.42675877 0.79941726 0.11081999 -0.045546412 -0.58382076 -0.4743033 -0.26429832
-1.0784391 -0.026074948 -0.39958254 -0.27842954 -0.655018 -0.29741988 -0.21798587 -0.6962773
-1.1300604 -0.3047492 -0.662346 -0.66688925 -1.0179954 -0.3631954 -0.085938804 0.09225123
0.37952492 -0.113526314 -0.016184546 0.40999645 -1.0237354 -0.3287354 -0.15203525 -0.20187218
0.021016153 0.09540407 -0.4004326 -0.07065452 0.12411487 -0.22398637 0.12505479 -0.039508928
-0.04329178 -0.6521248 0.5043714 0.12767853 -0.75815755 -0.07212495 0.03923209 -0.09221556
-1.1239046 0.6306554 0.25731224 -0.07964723 0.16523126 -0.2469661 -0.19784868 0.27887824
-0.08697351 0.21100718 -0.8305056 -0.8428294 -0.07410883 -0.58666056 -0.7235547 -0.6183758
-0.4779558 -0.36174548 -0.51636165 -0.36114004 -0.08563188 -0.35231367 -0.10517736 0.28828192
0.4589561 0.94602984 0.32005143 0.6894372 1.1757263 0.012814003 0.5499487 0.112697095
-0.349834 0.51867384 0.18614152 -0.11462575 0.12485844 0.7327221 -0.15210654 -0.0019539748
-0.20852008 -0.50022185 -0.067988686 -0.10859508 -0.6697816 -0.541881 -0.56706357 -1.1800364
-0.32165667 -0.6610383 -0.0009772446 -1.4554981 -0.36146212 0.24336867 -0.08641514 0.45578673
0.85660684 0.05363465 0.6704171 0.2904853 0.05289255 0.93033135 0.42673644 0.049379922
-0.5699555 -1.1667193 -0.07499945 -0.5333308 -0.1271626 0.29483223 -0.028945057 0.29305953
-0.3809037 -0.60362345 0.10165274 -0.9939686 -0.49895555 0.3230705 -1.1855896 -0.54472375
-0.0563654 -1.144584 0.118627675 0.45807758 -0.6941801 -0.47105232 -0.07049887 -0.7442231
0.21768147 0.16392261 -0.5172997 -0.14845686 0.8273622 -0.33342054 0.14291134 1.0377605
-0.6202154 -0.17021252 0.53212947 0.82423717 0.48757097 0.5431969 0.5777964 0.76676005
0.8248174 0.16430868 -0.041229263 0.40626258 -0.74675614 0.32533866 0.50659865 -0.60419583
0.5207996 0.5024834 -0.7063468 -0.31457007 -0.21229829 0.058970705 0.08739018 -0.39241794
-0.19498545 -0.20972326 0.56403875 0.5955455 0.17462137 -0.2631923 -0.44272867 -0.11607487
0.016297648 0.26924247 0.5526208 0.34048468 0.31056693 0.12119807 -0.2399049 0.42106536
0.059680004 0.0122385975 0.5324187 0.122680925 -0.10569764 -0.14903279 -0.036290765 -0.14371169
0.4337938 0.62227666 0.088032626 -0.21838702 0.4255141 0.10908295 -0.29772335 -0.43607408
0.16981058 -0.059576593 -0.08617607 -1.0141327 0.30847174 0.19445296 -0.6620031 0.9642308
0.018238321 -0.17506334 1.1165373 0.08994251 0.34202304 1.4418521 0.7979506 0.115420975
0.42600554 1.1891375 1.6414165 0.041446496 -0.010004306 0.1090693 -0.21393736 0.17386909
0.23401389 0.19937803 0.085803516 0.042720422 0.19062997 -0.40869826 -0.5937616 -0.56981874
00000000: 06a0 76be 40eb e7bd 911b 213f 4b2e e5be
00000010: 734b 343f dd39 073f 76b8 f2be 5a7a 1f3e
00000020: 2680 813e 7a78 f7bc 2cd6 ffbc b1d5 3bbe
00000030: ef8a fabe cfb7 3fbe b8e9 04bf e790 483d
00000040: fe1b 3abe f823 06bf 488f a93c 503f 4abd
00000050: b8ff 3cbe ea2d b43e 9e9f 213e 5769 053e
00000060: 3b29 203f 2080 da3e 9ca6 4c3f 97f5 e23d
00000070: e08e 3abd 4775 15bf e2d7 f2be 1c52 87be
00000080: 4b0a 8abf 219b d5bc 1596 ccbe 518e 8ebe
00000090: 42af 27bf 6b47 98be b037 5fbe 3b3f 32bf
000000a0: d2a5 90bf 1608 9cbe 828f 29bf 41b9 2abf
000000b0: ac4d 82bf bff4 b9be af00 b0bd 36ee bc3d
000000c0: 1751 c23e 7c80 e8bd 7495 84bc 0eeb d13e
000000d0: c309 83bf 0250 a8be 21af 1bbe 95b7 4ebe
000000e0: 112a ac3c 3663 c33d 8005 cdbe 51b3 90bd
000000f0: f02f fe3d af5c 65be 5d0e 003e 1dd4 21bd
00000100: b952 31bd a7f1 26bf 7c1e 013f 29be 023e
00000110: 9d16 42bf 3fb6 93bd d4b1 203d 83db bcbd
00000120: 1bdc 8fbf a272 213f 6ebe 833e 161e a3bd
00000130: 6232 293e aee4 7cbe d898 4abe 21c9 8e3e
00000140: 2b1f b2bd 4412 583e 049c 54bf abc3 57bf
00000150: 5fc6 97bd 632f 16bf e13a 39bf e04d 1ebf
00000160: 9fb6 f4be b436 b9be 4730 04bf 59e7 b8be
00000170: c45f afbd 7562 b4be 3a67 d7bd b099 933e
00000180: 4bfc ea3e 032f 723f c8dd a33e f57e 303f
00000190: 337e 963f d3f1 513c 70c9 0c3f bccd e63d
000001a0: 711d b3be cfc7 043f e29b 3e3e e8c0 eabd
000001b0: c8b5 ff3d ad93 3b3f d1c1 1bbe 420e 00bb
000001c0: 4a86 55be 8a0e 00bf a73d 8bbd 1967 debd
000001d0: cf76 2bbf b7b8 0abf 142b 11bf 6f0b 97bf
000001e0: 2fb0 a4be ce39 29bf e316 80ba c34d babf
000001f0: 9011 b9be a335 793e 6cfa b0bd e15c e93e
00000200: 964a 5b3f 02b0 5b3d 74a0 2b3f 7dba 943e
00000210: dca5 583d 322a 6e3f 337d da3e 9a42 4a3d
00000220: 9be8 11bf 0f57 95bf 5099 99bd 5e88 08bf
00000230: ea36 02be 40f4 963e 2f1e edbc e60b 963e
00000240: cf05 c3be 1187 1abf 502f d03d ba74 7ebf
00000250: 1a77 ffbe 7f69 a53e 66c1 97bf 0473 0bbf
00000260: 68df 66bd ba81 92bf 11f3 f23d 2589 ea3e
00000270: c9b5 31bf c52d f1be b661 90bd 6885 3ebf
00000280: e4e7 5e3e 54db 273e c16d 04bf 1305 18be
00000290: 02ce 533f 19b6 aabe 5a57 123e 56d5 843f
000002a0: 70c6 1ebf 314c 2ebe a339 083f 3501 533f
000002b0: e7a2 f93e f40e 0b3f 77ea 133f 634a 443f
000002c0: 3c27 533f 8940 283e 04e0 28bd a601 d03e
000002d0: 692b 3fbf ca92 a63e 73b0 013f 94ac 1abf
000002e0: 1f53 053f c1a2 003f 25d3 34bf 540f a1be
000002f0: b964 59be 448b 713d 9ff9 b23d 01eb c8be
00000300: 44aa 47be b2c1 56be d864 103f ab75 183f
00000310: f2cf 323e 24c1 86be 55ad e2be a9b8 edbd
00000320: a582 853c 26da 893e 8f78 0d3f 0254 ae3e
00000330: a102 9f3e b236 f83d a1a9 75be e195 d73e
00000340: 0573 743d 6684 483c 984c 083f 2340 fb3d
00000350: 0178 d8bd 0d9c 18be a0a5 14bd 2829 13be
00000360: 391a de3e 864d 1f3f 734a b43d d9a0 5fbe
00000370: fcdc d93e e266 df3d 326f 98be 1a45 dfbe
00000380: d3e2 2d3e 9606 74bd 147d b0bd 1acf 81bf
00000390: 02f0 9d3e ad1e 473e 0979 29bf d4d7 763f
000003a0: 8868 953c ce43 33be b2ea 8e3f c733 b83d
000003b0: a51d af3e 9c8e b83f 7e46 4c3f d561 ec3d
000003c0: 661d da3e a835 983f f019 d23f cdc3 293d
000003d0: 1ae9 23bc ba5f df3d 6512 5bbe bd0a 323e
000003e0: 56a1 6f3e c129 4c3e c1b9 af3d 9cfb 2e3d
000003f0: 8134 433e e640 d1be c300 18bf a4df 11bf

conv2.bias f4 [16]
0.21983568 -0.031190848 -0.02749393 -0.47026777 -0.12472119 0.17505692 -0.053012934 0.0062594246
0.9731981 1.2220312 0.21013188 -0.051495697 0.10468972 0.24571986 0.5145985 0.025376728
00000000: 9b1c 613e f383 ffbc f33a e1bc f0c6 f0be
00000010: d36d ffbd 1f42 333e 1724 59bd dc1b cd3b
00000020: 8323 793f 856b 9c3f d02c 573e 27ed 52bd
00000030: 9067 d63d fd9d 7b3e babc 033f dbe2 cf3c

conv3.weight f4 [16, 16, 3, 3]
-0.5925255 -0.6470487 0.34607545 -0.48875305 -0.15119053 0.8101632 0.17476794 -0.07887735
0.53586274 0.048793316 -0.050277077 -0.31100157 0.33137888 0.1590888 -0.14119765 1.0387285
0.140303 -0.25633815 -0.055372115 -0.124873705 -1.0631778 -0.41009104 -0.41497165 -0.4552524
-0.11885589 -0.50569206 -0.98174345 -0.06743271 -0.43652022 -0.2009247 -0.25610456 -0.3638934
-0.15945259 0.4251353 -0.07252843 0.14505221 -0.4343453 0.6655085 1.9419506 -0.91009784
0.015738811 1.0232384 -0.8860398 -0.022394937 0.7082909 -0.21443567 -0.58483166 -0.14517902
-0.1450074 -0.48403135 0.057193782 0.62888765 -0.40014657 -0.14038049 -0.9269229 -1.7120092
-0.18619929 -0.06604585 0.19667016 0.24073419 0.8697812 0.6925643 -0.29434735 -0.5617785
-0.33548224 -0.35127124 -0.022193108 -0.21673563 0.20597997 0.43758705 -0.17281124 0.31727207
-0.5742632 -0.4671714 0.15071121 -0.750577 -0.49361423 0.34605265 0.38394094 0.40579492
-0.10877139 1.1667542 0.18576673 -0.26728305 -0.5925643 -0.11350811 0.20716222 -0.52770644
8.764115e-05 0.31587675 -0.09212538 0.37031874 0.46379852 0.14538269 0.44828668 0.1698784
-0.6422372 -0.28986487 0.28353888 -0.31435943 -0.49830455 -0.7213744 0.5752289 -0.17079307
-0.18575706 1.2260753 -0.01574857 0.55350494 0.44764572 -0.5866866 -0.77649844 0.24234965
0.109400496 0.15706326 0.48884338 0.34524703 -0.08372486 0.43635917 -0.001928889 -0.70727724
0.5861454 0.13017224 -0.44431534 0.20313144 -0.045880973 0.465237 0.78810704 -0.05221481
0.14305522 0.8928423 0.39064714 -0.22298183 -0.3767776 0.3297626 1.0336508 -0.3108695
-0.34910893 -0.33031237 0.10217204 -0.11880959 -0.068264775 0.13637327 -0.16251855 -0.33606642
0.24022464 0.43390933 0.34460872 0.27186623 -0.21831709 0.425966 -0.5093876 -0.3487908
0.48765412 -0.7928622 -0.54678917 -0.7740623 -0.3946123 0.24918066 0.0071827965 0.17997484
0.6134132 0.3777023 -0.91185075 -0.39258328 -0.3739156 -0.9535581 -0.31952217 0.70661634
-0.6735358 0.07374132 0.8693557 0.24900953 -0.042579863 -0.39356083 -0.14156647 0.21271525
-0.009327471 -0.4391673 0.0169251 -0.123032264 0.63982916 0.6208012 0.72449094 0.02055774
0.15853025 -0.3133328 -0.5904403 -0.19328411 -0.37260458 -0.16581313 0.24894431 -0.05977303
-0.09760187 0.090198025 -0.010386672 -0.08671663 0.09124864 0.011602801 0.043634586 0.13294177
0.6929871 -0.54617393 0.1673194 0.15770994 -0.5400554 0.18512611 0.30194014 -0.079972394
0.58841205 0.5791147 0.23334536 0.7185596 0.7130891 -0.017698934 0.38276115 0.30792224
-0.039328784 0.11670579 0.07616329 -1.2237942 -0.41691488 -0.013370104 -0.7313966 -1.1766094
0.110105634 0.34942004 0.3224701 -0.41250354 0.08077562 -0.16557224 -0.8127511 -0.85479873
-0.713234 -1.4017897 0.53591293 0.06925916 -0.25822523 0.26305678 -0.6546165 -0.27042356
-0.51596105 -0.32510123 -0.54118073 -0.17190267 0.3105024 0.053211484 -0.15086584 0.10698507
0.17361821 0.027632784 0.23145789 0.020683298 -1.1975507 -1.5350857 -0.452713 -0.41734982
00000000: c0af 17bf fca4 25bf cd30 b13e d73d fabe
00000010: b1d1 1abe db66 4f3f 5ef6 323e 738a a1bd
00000020: 4d2e 093f 80db 473d 56ef 4dbd 993b 9fbe
00000030: 7eaa a93e 2de8 223e 1e96 10be 0ef5 843f
00000040: 97ab 0f3e c13e 83be dfcd 62bd c9bd ffbd
00000050: 3616 88bf 74f7 d1be 2a77 d4be d816 e9be
00000060: b86a f3bd 0975 01bf 8a53 7bbf 291a 8abd
00000070: 947f dfbe 34bf 4dbe 2320 83be 3c50 babe
00000080: 8a47 23be 56ab d93e c989 94bd 9188 143e
00000090: 8262 debe c45e 2a3f d691 f83f 2cfc 68bf
000000a0: aeee 803c 7af9 823f 81d3 62bf 9675 b7bc
000000b0: 8d52 353f 0695 5bbe 87b7 15bf cfa9 14be
000000c0: d27c 14be f5d2 f7be 0744 6a3d c8fe 203f
000000d0: 03e0 ccbe e7bf 0fbe d24a 6dbf 1e23 dbbf
000000e0: 07ab 3ebe 0c43 87bd e763 493e 0683 763e
000000f0: fba9 5e3f e54b 313f b2b4 96be b7d0 0fbf
00000100: 54c4 abbe d3d9 b3be 52ce b5bc f2ef 5dbe
00000110: 6aec 523e 690b e03e 6ef5 30be 7c71 a23e
00000120: ea02 13bf 1731 efbe 0a54 1a3e d025 40bf
00000130: 01bb fcbe d02d b13e e893 c43e 5ac4 cf3e
00000140: 89c3 debd 3458 953f a239 3e3e 53d9 88be
00000150: 4bb2 17bf f176 e8bd 5522 543e c517 07bf
00000160: fccb b738 99ba a13e 3bac bcbd 6b9a bd3e
00000170: 0077 ed3e 33df 143e d585 e53e 9af4 2d3e
00000180: a869 24bf 2b69 94be 022c 913e b8f3 a0be
00000190: c621 ffbe feab 38bf 3442 133f 61e4 2ebe
000001a0: 1937 3ebe 09f0 9c3f 2503 81bc 80b2 0d3f
000001b0: d231 e53e 1831 16bf 9ac8 46bf 822a 783e
000001c0: 5e0d e03d 31d5 203e ae49 fa3e 38c4 b03e
000001d0: f077 abbd 786a df3e c6d2 fcba 1f10 35bf
000001e0: a00d 163f df4b 053e 4d7d e3be b001 503e
000001f0: b0ed 3bbd 8b33 ee3e 62c1 493f 32df 55bd
00000200: 117d 123e 5091 643f e702 c83e 5955 64be
00000210: fee8 c0be a5d6 a83e ab4e 843f 492a 9fbe
00000220: 68be b2be b41e a9be 933f d13d 7152 f3bd
00000230: 67ce 8bbd 6fa5 0b3e 436b 26be e610 acbe
00000240: 73fd 753e 5d29 de3e 8e70 b03e 0d32 8b3e
00000250: 848e 5fbe 3718 da3e 3a67 02bf b594 b2be
00000260: cdad f93e 04f9 4abf 60fa 0bbf f228 46bf
00000270: a00a cabe 3729 7f3e aa5d eb3b 534b 383e
00000280: a608 1d3f 3262 c13e 0d6f 69bf ad00 c9be
00000290: de71 bfbe 621c 74bf 6998 a3be cfe4 343f
000002a0: d86c 2cbf b005 973d 188e 5e3f 5bfc 7e3e
000002b0: 3968 2ebd ce80 c9be cdf6 10be 07d2 593e
000002c0: 40d2 18bc 89da e0be 82a6 8a3c 57f8 fbbd
000002d0: d8cb 233f d4ec 1e3f 3d78 393f b568 a83c
000002e0: c155 223e 286d a0be 1827 17bf 45ec 45be
000002f0: 07c6 bebe ebca 29be 42eb 7e3e 91d4 74bd
00000300: 7de3 c7bd beb9 b83d dc2c 2abc 7d98 b1bd
00000310: 91e0 ba3d ad19 3e3c 2eba 323d e321 083e
00000320: 9a67 313f 0ed2 0bbf c755 2b3e b77e 213e
00000330: 1241 0abf b391 3d3e e697 9a3e 91c8 a3bd
00000340: 2ca2 163f dc40 143f 16f2 6e3e 86f3 373f
00000350: 028d 363f 5bfd 90bc 45f9 c33e fca7 9d3e
00000360: 3817 21bd 7203 ef3d 80fb 9b3d 4aa5 9cbf
00000370: de75 d5be 480e 5bbc cf3c 3bbf 239b 96bf
00000380: 107f e13d 2fe7 b23e cd1a a53e aa33 d3be
00000390: b06d a53d c58b 29be 7510 50bf 17d4 5abf
000003a0: 8196 36bf d86d b3bf 9731 093f bfd7 8d3d
000003b0: 1936 84be 61af 863e f294 27bf f574 8abe
000003c0: 0616 04bf ab73 a6be d28a 0abf 4107 30be
000003d0: 2cfa 9e3e 49f4 593d 937c 1abe fd1a db3d
000003e0: f9c8 313e 265e e23c 4c03 6d3e 0570 a93c
000003f0: 5749 99bf b07d c4bf 00ca e7be e0ae d5be

conv3.bias f4 [16]
-0.1537997 -0.50134367 0.48307368 -0.043992247 0.48411328 0.021137344 -0.561018 0.06768127
0.38006276 -0.33845428 0.21441159 0.31907415 0.4213184 0.34130043 0.059741132 0.6702188
00000000: ab7d 1dbe 0f58 00bf 6f55 f73e 3731 34bd
00000010: b2dd f73e 3928 ad3c e09e 0fbf 7a9c 8a3d
00000020: 9697 c23e e149 adbe b68e 5b3e b05d a33e
00000030: 0cb7 d73e eebe ae3e 1eb3 743d 7693 2b3f

conv4.weight f4 [16, 16, 3, 3]
0.17120652 -0.47693506 -0.721937 0.28777432 -0.052890766 -0.32421443 0.0841568 -0.08446286
0.76014405 -0.0988054 -0.047389977 -1.1019504 0.08726093 -0.24604398 -0.4771036 0.59401166
0.32503244 0.37269187 0.30966 0.50203323 0.11340155 0.30891526 0.3504559 0.13969839
0.21315698 0.023272755 -0.15895583 -0.41067657 -0.26690134 0.50717086 -0.72561646 0.011254684
0.71556056 -0.88403636 -0.28776428 -0.08891897 -0.09380843 -0.08351445 -0.032052755 0.10312907
0.13265646 0.13436724 0.22774254 0.11825428 0.058756385 0.8526576 0.90996504 0.88667554
0.38973495 0.09402483 0.17257188 -0.11674554 -0.7152653 -0.36643332 0.16980168 -0.41400492
-0.5432047 0.14740917 -0.05537259 -0.07599303 -0.120709896 -0.23608004 0.005310117 -0.7496346
-0.58371025 -0.7082147 0.15622367 -0.19220015 -0.15776391 1.0898442 0.108976334 -0.7000638
-0.13538665 0.65889704 1.1436541 -0.61441183 0.09418798 0.7450939 -1.1608552 -0.622898
-0.020082591 0.16694488 -0.019064045 -0.47981465 0.11245493 -0.07066239 -0.3053348 0.13450979
0.19949605 0.07279287 -0.11255494 -0.21750219 -0.03579314 -0.6256272 -0.545328 -0.67846215
0.20137593 -0.42593345 -0.9717033 -0.31115773 -0.67560744 -0.8155179 0.85486966 0.31320208
-0.06695578 1.6628419 0.917462 0.26222876 -0.25986937 -0.27058998 0.06603485 0.12040232
0.14006087 0.22558644 0.5925517 0.4561834 0.34396407 0.8099944 0.28086334 -0.19192976
0.50562304 0.59894013 0.27135208 1.2436744 0.15614778 -0.4908039 -0.13546751 0.25955215
-0.11702389 -0.058211397 0.2488471 0.16447401 -0.2468405 -0.004613559 0.089899756 0.40469062
-0.34330055 -0.73413056 0.16346057 0.31880453 0.39803064 -0.27893895 0.04693966 0.74758804
0.022284592 -0.27811286 -0.4410459 0.18266514 0.1997539 -0.5659175 0.40760645 0.351553
-0.507377 -0.97605455 -0.3421399 0.08035353 -0.60717547 0.34614718 -0.14893216 0.95938605
0.1924672 -0.504256 0.10897322 -0.2626862 0.008979313 -0.95513165 -0.6812094 -0.21611805
-0.89811486 -0.5460609 -0.11855217 0.22670203 0.44550484 -0.24311116 0.8161392 0.26896945
-0.0589473 0.6324305 -0.411435 -0.76926243 0.4426856 -0.06720233 0.8715651 -0.29011405
-0.582789 0.12933384 0.24594867 -0.09627798 0.35651743 0.4403203 0.48912796 0.37658894
1.2385995 0.613298 0.41813263 -0.14968699 -0.002654561 0.48876804 -1.1056186 -1.0295278
-0.8373967 0.06600928 0.56082475 -0.18735224 0.17543589 0.172444 -1.6835507 -0.15092099
-0.13254772 0.3884818 0.15980087 0.42316017 0.44446242 -0.0018075601 -0.49357668 -0.4130592
0.6085058 0.9078485 -0.67582405 0.4563788 -0.5822324 -2.1258001 -0.14289281 -1.6313757
-2.0862958 0.23665339 0.2791336 -0.016858734 -0.027268426 0.12964617 -0.093648344 -0.66182715
-0.1607919 0.46730414 1.1764691 0.14341258 0.21620068 0.36405903 -0.21794577 -0.35120752
-0.34073853 -0.1319521 -0.37699455 -0.79097813 -0.7058069 -0.11972241 -0.4477706 -0.14173959
0.32754883 -0.4956583 -0.115029596 -0.085744195 -0.1848979 0.3509232 0.22917755 -0.05563126
00000000: c350 2f3e d530 f4be ddd0 38bf 2857 933e
00000010: fda3 58bd 6fff a5be 665a ac3d ddfa acbd
00000020: cd98 423f 7c5a cabd fe1b 42bd b60c 8dbf
00000030: dcb5 b23d f4f2 7bbe ec46 f4be 2611 183f
00000040: a76a a63e 78d1 be3e c18b 9e3e 4085 003f
00000050: 123f e83d 242a 9e3e f56e b33e 180d 0f3e
00000060: d345 5a3e 81a6 be3c 51c5 22be 3344 d2be
00000070: 4ba7 88be f3d5 013f 00c2 39bf 9165 383c
00000080: fa2e 373f 3550 62bf d755 93be 261b b6bd
00000090: a21e c0bd a009 abbd c049 03bd 5535 d33d
000000a0: 18d7 073e 9197 093e 5735 693e 4d2f f23d
000000b0: 89aa 703d c547 5a3f 78f3 683f 2bfd 623f
000000c0: 578b c73e 1790 c03d afb6 303e 4918 efbd
000000d0: a01b 37bf 269d bbbe 7ee0 2d3e 74f8 d3be
000000e0: 770f 0bbf 6ef2 163e 5ece 62bd 3ca2 9bbd
000000f0: c036 f7bd f7be 71be 7d00 ae3b 0ee8 3fbf
00000100: 096e 15bf 8f4d 35bf 19f9 1f3e 1ed0 44be
00000110: dd8c 21be 0480 8b3f fc2e df3d 6237 33bf
00000120: cca2 0abe 7aad 283f 4263 923f 184a 1dbf
00000130: a1e5 c03d 79be 3e3f e796 94bf 3e76 1fbf
00000140: 3f84 a4bc 99f3 2a3e 332c 9cbc 44aa f5be
00000150: c54e e63d 71b7 90bd d854 9cbe efbc 093e
00000160: b148 4c3e 6e14 953d 3483 e6bd e5b8 5ebe
00000170: d49b 12bd 1b29 20bf 9e9a 0bbf b2af 2dbf
00000180: 7e35 4e3e f313 dabe 8cc1 78bf 1150 9fbe
00000190: 9cf4 2cbf c8c5 50bf bdd8 5a3f 065c a03e
000001a0: 1d20 89bd 01d8 d43f cade 6a3f d942 863e
000001b0: 990d 85be c58a 8abe 483d 873d 7e95 f63d
000001c0: 1e6c 0f3e 2200 673e 78b1 173f df90 e93e
000001d0: 0f1c b03e cb5b 4f3f 52cd 8f3e 3c89 44be
000001e0: 8370 013f 2454 193f a9ee 8a3e b930 9f3f
000001f0: 34e5 1f3e a64a fbbe ffb7 0abe 05e4 843e
00000200: 39aa efbd 136f 6ebd c6d1 7e3e e06b 283e
00000210: c2c3 7cbe 572d 97bb 5d1d b83d 9c33 cf3e
00000220: 17c5 afbe fbef 3bbf 3562 273e 593a a33e
00000230: acca cb3e 16d1 8ebe cd43 403d ee61 3f3f
00000240: 2d8e b63c cf64 8ebe c5d0 e1be 920c 3b3e
00000250: 498c 4c3e f8df 10bf cbb1 d03e c1fe b33e
00000260: 76e3 01bf b6de 79bf f62c afbe 6490 a43d
00000270: da6f 1bbf 343a b13e ac81 18be 539a 753f
00000280: 1f16 453e ec16 01bf 5a2d df3d ce7e 86be
00000290: f81d 133c 8283 74bf bd63 2ebf 0d4e 5dbe
000002a0: dbea 65bf a6ca 0bbf 7bcb f2bd 9424 683e
000002b0: 3619 e43e 22f2 78be 80ee 503f 5db6 893e
000002c0: b972 71bd f7e6 213f 9ca7 d2be 62ee 44bf
000002d0: b0a7 e23e 60a1 89bd e41e 5f3f d489 94be
000002e0: a931 15bf 1770 043e f8d9 7b3e 642d c5bd
000002f0: 7489 b63e aa71 e13e fb6e fa3e 44d0 c03e
00000300: 6e8a 9e3f 1901 1d3f 7b15 d63e 8c47 19be
00000310: 25f8 2dbb ce3f fa3e e984 8dbf 91c7 83bf
00000320: a15f 56bf e02f 873d 3692 0f3f 44d9 3fbe
00000330: 77a5 333e 2995 303e 977e d7bf 088b 1abe
00000340: 97ba 07be 16e7 c63e d7a2 233e 73a8 d83e
00000350: 9490 e33e a7eb ecba 15b6 fcbe 7f7c d3be
00000360: 09c7 1b3f c268 683f ce02 2dbf 7baa e93e
00000370: 2f0d 15bf 1c0d 08c0 7e52 12be ebd0 d0bf
00000380: df85 05c0 4455 723e 99ea 8e3e 541b 8abc
00000390: 0962 dfbc f7c1 043e b4ca bfbd 816d 29bf
000003a0: a2a6 24be 7d42 ef3e 8a96 963f bfda 123e
000003b0: b663 5d3e f265 ba3e 2d2d 5fbe 79d1 b3be
000003c0: 4875 aebe 741e 07be 6e05 c1be 8b7d 4abf
000003d0: c3af 34bf 0631 f5bd 3042 e5be 2f24 11be
000003e0: 7bb4 a73e edc6 fdbe a394 ebbd a79a afbd
000003f0: e055 3dbe 35ac b33e 85ad 6a3e 9bdd 63bd

conv4.bias f4 [16]
-0.26098126 0.33255973 -0.7111169 0.19374311 -0.5537166 0.16223417 -0.19067055 0.30636352
-0.3044437 0.44810134 0.9486028 0.06622856 -0.42700633 0.33306405 0.1855935 0.3931626
00000000: 569f 85be 4545 aa3e c20b 36bf 9864 463e
00000010: 5fc0 0dbf b720 263e 243f 43be aedb 9c3e
00000020: 0be0 9bbe 8a6d e53e a2d7 723f d7a2 873d
00000030: 93a0 dabe 5f87 aa3e 390c 3e3e 9c4c c93e

conv5.weight f4 [16, 16, 3, 3]
0.66789347 -0.1625052 -0.17043313 0.25279766 0.23662178 -0.16796735 -1.0091516 -0.59426576
-0.32436424 -0.24059449 0.19311392 -0.33345243 -0.116556756 0.4576994 0.2609486 1.0018519
1.577265 1.9139218 -0.08328821 0.13800815 -0.2916064 -0.683816 -0.338167 -0.18579018
0.3623761 0.39675507 -0.2827647 -0.6947283 -0.10972022 -0.105488755 0.5181031 0.27711555
-0.50562036 0.1694525 0.50192326 -0.09583149 -0.19548945 0.33665454 0.4149345 0.5874032
0.4154122 0.019419333 -0.0031153336 0.047728796 -0.47168908 0.3040482 -0.08455779 -0.19835752
0.2706334 -0.18130869 -0.9148251 -0.014645072 0.6510506 -0.011964039 0.2668978 -0.40063837
-0.061698724 -0.07977575 -0.45981383 -0.55147797 0.11308528 -0.4241239 -0.68491477 0.19322528
0.12043496 -0.15726389 -0.9327662 -0.6861483 0.111361556 -0.7484404 0.68518716 1.712574
0.6098839 0.24360384 0.5738486 0.12815237 0.21579531 -0.043341618 -1.4228066 -0.6086123
-1.1087366 0.39278337 -0.021657154 -0.472176 -0.3838176 0.02006161 -0.11251307 1.4083811
1.405407 0.98718995 0.8617007 0.22640201 -0.25022635 -0.05250943 0.23791829 -0.47118762
0.1601776 -0.2960779 -0.17559026 0.48592338 0.075316496 -0.21397895 -0.30005223 -0.20878649
-0.13645679 -0.22348724 0.32764062 -0.004813281 0.46227527 0.73108345 0.26253894 -0.28384626
0.25106764 -0.29074746 -0.62214714 -0.6201048 -0.9409034 -0.38006324 0.537901 -0.08922859
-0.28306282 -0.10219183 -0.86106217 0.19464797 0.5744563 -0.7307693 0.95426965 0.6806466
0.4404508 0.7069454 0.50923383 0.5720558 -0.0436231 0.07829673 -1.3714294 -0.61557466
-0.13901113 -0.3490119 -0.44614878 0.08032681 -0.35219857 -0.09957536 -0.30399665 -0.9368893
-0.029697685 -0.08313199 0.13993783 0.37548167 -0.63593316 -0.47183177 0.12026744 -1.0677034
-0.7732262 -0.34248117 -0.53602237 -0.20920025 -0.15132964 0.30980244 0.3218963 -0.2303654
-0.31036714 -0.3025635 -0.9515042 -0.70366424 -0.97048366 -0.85322696 -0.1189549 0.1886976
-0.2283423 -0.072992966 -0.11653399 -1.2407163 -0.080316976 -0.4864541 0.19619913 0.40364864
-0.14109743 0.28100583 0.14773118 0.0057771015 0.56293476 0.07508343 0.7285063 -0.6095935
-0.3252469 -0.35548875 -0.05128942 -0.16831264 -0.68779 0.76992047 -0.030828265 -1.3084269
-0.21567549 -0.114641085 -0.75778985 -0.1996048 -0.13960077 0.8748631 0.08372068 -0.52323496
-1.0444045 -0.5945623 -0.29650894 -1.5197245 -0.91584617 -0.37559563 -0.06451389 0.51777506
0.24320053 0.98749334 0.31622466 0.023245202 -0.21695523 0.101310164 -0.3650828 -0.6657107
0.87710273 0.16394779 0.28799817 0.07178763 -0.81241256 -1.6972388 -0.688749 -1.7430022
-2.0115077 0.4898523 -0.033949032 -0.16497327 0.91431886 0.3960614 0.3171895 0.47322962
0.45309296 0.61848176 0.025326578 -0.54455876 -0.7087228 0.37655905 -0.1088564 -0.092712075
-0.13263914 -0.2629677 0.20235242 -0.25378558 -0.71169484 -0.6002541 0.26412454 -0.3504499
-0.013297327 0.066295035 0.3715975 0.7294256 -1.2382241 0.09782827 0.03218885 -0.9410444
00000000: 11fb 2a3f c367 26be 0686 2ebe b26e 813e
00000010: fb4c 723e a2ff 2bbe e12b 81bf cd21 18bf
00000020: 1213 a6be 675e 76be a8bf 453e 47ba aabe
00000030: 4fb5 eebd 9357 ea3e 0e9b 853e af3c 803f
00000040: d2e3 c93f 64fb f43f 0293 aabd 0252 0d3e
00000050: 6f4d 95be 910e 2fbf 3a24 adbe c83f 3ebe
00000060: 5c89 b93e 7b23 cb3e 89c6 90be b7d9 31bf
00000070: ffb4 e0bd 7d0a d8bd 68a2 043f 17e2 8d3e
00000080: 5670 01bf f584 2d3e 0b7e 003f 4d43 c4bd
00000090: 632e 48be fc5d ac3e 4b72 d43e 0e60 163f
000000a0: e8b0 d43e 4b15 9f3c a02a 4cbb 457f 433d
000000b0: 3b81 f1be 35ac 9b3e a22c adbd 3c1e 4bbe
000000c0: 7690 8a3e fca8 39be fa31 6abf e2f1 6fbc
000000d0: 41ab 263f d104 44bc d4a6 883e 7920 cdbe
000000e0: cdb7 7cbd 7861 a3bd b86c ebbe a92d 0dbf
000000f0: 4199 e73d c526 d9be 9356 2fbf d9dc 453e
00000100: 9ba6 f63d c909 21be c4c9 6ebf 6aa7 2fbf
00000110: 8711 e43d ca99 3fbf 6d68 2f3f a035 db3f
00000120: 5a21 1c3f 4973 793e bee7 123f 603a 033e
00000130: 72f9 5c3e fb86 31bd 871e b6bf 04ce 1bbf
00000140: 15eb 8dbf e71a c93e 586a b1bc 0dc1 f1be
00000150: be83 c4be 3f58 a43c 416d e6bd d545 b43f
00000160: 60e4 b33f 7bb8 7c3f 6b98 5c3f eed5 673e
00000170: ab1d 80be 2114 57bd daa0 733e 813f f1be
00000180: 9905 243e 8697 97be efcd 33be f3ca f83e
00000190: 893f 9a3d 4c1d 5bbe 72a0 99be 20cc 55be
000001a0: 54bb 0bbe d7d9 64be 83c0 a73e bab8 9dbb
000001b0: 58af ec3e 4928 3b3f 816b 863e 4c54 91be
000001c0: f08b 803e dadc 94be 0945 1fbf 30bf 1ebf
000001d0: 0cdf 70bf a697 c2be e1b3 093f 7bbd b6bd
000001e0: 9ced 90be f349 d1bd 926e 5cbf cc51 473e
000001f0: 910f 133f b213 3bbf 044b 743f db3e 2e3f
00000200: c482 e13e 60fa 343f 265d 023f 4072 123f
00000210: 23ae 32bd 095a a03d 008b afbf 4d96 1dbf
00000220: ef58 0ebe b0b1 b2be 9d6d e4be 6282 a43d
00000230: 5f53 b4be 2bee cbbd 73a5 9bbe fad7 6fbf
00000240: 8f48 f3bc 1b41 aabd dd4b 0f3e 223f c03e
00000250: 84cc 22bf ef93 f1be c74e f63d 81aa 88bf
00000260: 27f2 45bf b159 afbe c338 09bf 9738 56be
00000270: 28f6 1abe 6d9e 9e3e 98cf a43e e8e4 6bbe
00000280: 71e8 9ebe 9ae9 9abe c795 73bf 5723 34bf
00000290: 9e71 78bf 156d 5abf a09e f3bd f239 413e
000002a0: 90d2 69be 567d 95bd 5fa9 eebd cbcf 9ebf
000002b0: 3a7d a4bd 8310 f9be 6de8 483e 09ab ce3e
000002c0: d87b 10be ffdf 8f3e d846 173e d74d bd3b
000002d0: 7e1c 103f 57c5 993d 647f 3a3f 520e 1cbf
000002e0: c386 a6be 9f02 b6be db14 52bd 265a 2cbe
000002f0: 0113 30bf 8219 453f 8f8b fcbc 887a a7bf
00000300: 09da 5cbe f2c8 eabd 84fe 41bf 3365 4cbe
00000310: 81f3 0ebe 07f7 5f3f bf75 ab3d baf2 05bf
00000320: 0caf 85bf 3c35 18bf 05d0 97be 5586 c2bf
00000330: e574 6abf 124e c0be dc1f 84bd e88c 043f
00000340: 8f09 793e 5dcc 7c3f 33e8 a13e b96c be3c
00000350: 8329 5ebe b47b cf3d 22ec babe 046c 2abf
00000360: ce89 603f eee1 273e 7f74 933e 6505 933d
00000370: 45fa 4fbf 1f3f d9bf db51 30bf b21a dfbf
00000380: 8bbc 00c0 eccd fa3e 240e 0bbd c1ee 28be
00000390: cd10 6a3f 8fc8 ca3e aa66 a23e 274b f23e
000003a0: cdfb e73e d254 1e3f af79 cf3c 3468 0bbf
000003b0: db6e 35bf 59cc c03e 1bf0 debd d4df bdbd
000003c0: 8ed2 07be b4a3 86be 7935 4f3e 2ff0 81be
000003d0: a231 36bf 41aa 19bf 553b 873e 2b6e b3be
000003e0: 08dd 59bc b1c5 873d 0742 be3e a3bb 3a3f
000003f0: 217e 9ebf 305a c83d 75d8 033d 49e8 70bf

conv5.bias f4 [16]
-0.79706186 0.4369397 -0.344798 -0.69545877 -0.21262848 0.9144065 0.55255944 0.48110119
0.10928578 -0.5245325 0.20264286 0.6358262 0.27996758 0.16131714 -0.35029846 0.6006297
00000000: 3f0c 4cbf 8fb6 df3e 5d89 b0be 9609 32bf
00000010: 48bb 59be 8b16 6a3f 8974 0d3f e552 f63e
00000020: 39d1 df3d c347 06bf 9c81 4f3e 81c5 223f
00000030: e957 8f3e 5230 253e 525a b3be dec2 193f

conv6.weight f4 [16, 16, 2, 2]
-0.2769748 -0.062584884 -0.3461867 0.18749076 -0.621403 -0.61985195 -0.688317 -1.0713819
-0.31897685 0.55630255 0.16388166 0.6011615 0.06337108 0.43376154 -0.39188173 -0.74460644
0.3899267 0.43433103 0.39867258 0.5291126 0.9115617 0.70809937 0.24088517 0.60218906
0.60344344 0.9480135 -0.04029875 0.023650497 -0.0223718 -0.7952018 0.91548806 -0.036342658
0.23908225 -0.06375963 -0.04820309 0.007830841 0.40546155 0.23618487 -0.1388045 0.43151534
-0.3713405 -0.049760804 -0.34554067 -0.87339276 -0.36641687 -0.5332253 -0.9279476 -0.7734357
-0.33671162 -0.37394628 -0.16089563 0.4927066 -0.1989101 0.0023627384 -0.63654554 0.0031028155
-0.29111883 -0.48037913 -0.11570577 -0.27376807 0.41098705 0.633922 0.6384745 1.1945997
-0.90827864 -1.3607663 -1.214848 -1.8639889 0.3352058 0.7926127 -0.041156817 0.5375506
0.14854294 0.3709927 -0.32641616 0.02402236 0.34650284 0.65376866 0.09250464 -0.7627882
-0.6625089 -0.6505366 0.2891379 -0.42186794 0.65812975 0.36771208 0.5294252 0.44218874
-0.7437754 -0.8182068 0.18675451 -0.32838994 0.06383732 0.46713054 -0.1533721 0.020866117
0.22610459 0.190538 0.22000381 0.6097283 0.5178418 0.5297169 0.42734888 0.6159028
0.18236484 -0.21669641 -0.6849712 -0.5634393 -0.20283367 -0.3062531 -0.34289446 -0.41704324
0.6636532 1.012674 0.36646944 0.65817755 -0.35257745 0.20100537 -0.06838928 -1.0903792
0.2562154 0.02569926 1.3384978 0.9393601 -0.15107028 -0.15734278 0.025001813 -0.16792189
-0.049725156 0.45464623 0.044436026 0.55176574 -1.4004768 -0.7099656 -0.7487874 -0.18352164
-0.12795395 -0.12479174 0.36492422 0.53331816 -0.4195875 0.97332 -0.5879564 1.4050347
-0.6987554 -0.3056533 -1.1176734 -0.54648757 -0.51243216 -0.42587176 0.122265585 -0.0056489795
0.5214613 0.75844234 -0.4169519 0.46214303 -0.49400985 0.2785549 -0.37152877 0.8563695
-0.74945736 -0.9278396 -0.9179142 -0.9516738 0.054150827 -0.29009217 0.6410062 -0.4079079
0.23818167 0.4996326 0.22544888 0.081138775 0.6154133 0.81849605 0.9653618 1.4530485
0.74314123 1.5298886 0.07763174 0.59586143 0.14347269 0.4913174 0.17279887 0.089315705
0.39051372 0.5303802 -0.19343723 -0.45210338 -0.44630796 0.049849194 -0.4614336 -0.6542233
0.838567 0.4855764 0.77766997 1.2401257 0.625657 0.55068976 -0.022834515 0.6322923
-0.047352135 0.29218146 0.029376537 0.46667957 -0.18471383 -0.26839405 -0.06933852 -0.63758594
-0.5933442 -0.72412586 -0.31387225 -0.62378085 0.13731556 0.19649649 0.017955974 0.3696047
-0.16742 0.2519367 0.4723933 0.21720384 0.06642827 0.40447393 -0.33223942 0.08522752
-1.1008768 -1.3491439 -0.8655302 -0.59862286 0.42227694 -0.014401633 0.08052186 -0.9131145
-0.782255 -0.4197414 -0.17352472 1.0327678 -0.39858034 0.03283929 -0.24730554 0.11801157
-0.79019916 -0.37757573 -0.19798589 -0.16597575 0.83320284 0.69843245 0.7033767 0.67503315
1.2839551 0.5810184 0.05512304 0.223106 0.008607792 -0.36598313 -0.05432571 -0.31998095
00000000: a4cf 8dbe 812c 80bd 623f b1be 94fd 3f3e
00000010: 4414 1fbf 9eae 1ebf 8b35 30bf 0b23 89bf
00000020: ef50 a3be d869 0e3f 98d0 273e b8e5 193f
00000030: b2c8 813d fe15 de3e b9a4 c8be 879e 3ebf
00000040: 79a4 c73e a360 de3e d01e cc3e ec73 073f
00000050: 1c5c 693f 0046 353f 9aaa 763e 1029 1a3f
00000060: 457b 1a3f 03b1 723f 4d10 25bd b0be c13c
00000070: 1145 b7bc 5892 4bbf 6d5d 6a3f 0adc 14bd
00000080: fad1 743e 6994 82bd 9a70 45bd ed4c 003c
00000090: a898 cf3e 72da 713e c422 0ebe 94ef dc3e
000000a0: 5820 bebe fcd1 4bbd b5ea b0be ab96 5fbf
000000b0: fe9a bbbe 7481 08bf f98d 6dbf e2ff 45bf
000000c0: 7765 acbe e375 bfbe d3c1 24be 0a44 fc3e
000000d0: 17af 4bbe 2cd8 1a3b a6f4 22bf 9b58 4b3b
000000e0: 870d 95be 41f4 f5be 26f7 ecbd 542b 8cbe
000000f0: e56c d23e b648 223f 1173 233f a5e8 983f
00000100: f384 68bf 972d aebf 2480 9bbf 3097 eebf
00000110: 18a0 ab3e aae8 4a3f 0d94 28bd eb9c 093f
00000120: a41b 183e c1f2 bd3e 0520 a7be 8aca c43c
00000130: d268 b13e 625d 273f 1373 bd3d 1646 43bf
00000140: 2f9a 29bf 9189 26bf e209 943e 13ff d7be
00000150: 317b 283f c244 bc3e 6988 073f 9066 e23e
00000160: 1168 3ebf 0076 51bf 933c 3f3e ba22 a8be
00000170: 24bd 823d bc2b ef3e 930d 1dbe 6bef aa3c
00000180: f687 673e 651c 433e ae48 613e 2717 1c3f
00000190: 4891 043f 879b 073f 79cd da3e ceab 1d3f
000001a0: d9bd 3a3e aae5 5dbe 465a 2fbf 8f3d 10bf
000001b0: a1b3 4fbe 35cd 9cbe dd8f afbe b186 d5be
000001c0: 2de5 293f 4d9f 813f e2a1 bb3e 537e 283f
000001d0: 0885 b4be 5ad4 4d3e ae0f 8cbd 8c91 8bbf
000001e0: aa2e 833e 4187 d23c e553 ab3f e779 703f
000001f0: 2bb2 1abe 771e 21be 9ad0 cc3c b7f3 2bbe
00000200: 9bac 4bbd 64c7 e83e 8d02 363d 8540 0d3f
00000210: d342 b3bf 4ec0 35bf 88b0 3fbf 19ed 3bbe
00000220: 5c06 03be d092 ffbd 59d7 ba3e 8a87 083f
00000230: 2cd4 d6be 802b 793f 5084 16bf 2dd8 b33f
00000240: a2e1 32bf 977e 9cbe ec0f 8fbf 9ce6 0bbf
00000250: c12e 03bf dd0b dabe 6166 fa3d 131b b9bb
00000260: 7d7e 053f 4729 423f b87a d5be 039e ec3e
00000270: dcee fcbe bf9e 8e3e 0539 bebe 083b 5b3f
00000280: 70dc 3fbf e586 6dbf 6dfc 6abf e5a0 73bf
00000290: 42cd 5d3d f686 94be fb18 243f 4ed9 d0be
000002a0: e5e5 733e d8cf ff3e 12dc 663e 162c a63d
000002b0: ba8b 1d3f f588 513f f321 773f 7efd b93f
000002c0: 813e 3e3f 64d3 c33f 64fd 9e3d 608a 183f
000002d0: 81ea 123e f48d fb3e 30f2 303e 27eb b63d
000002e0: 6af1 c73e ffc6 073f 6914 46be 187a e7be
000002f0: 7a82 e4be ab2e 4c3d 0641 ecbe 2e7b 27bf
00000300: 54ac 563f 789d f83e 6115 473f 70bc 9e3f
00000310: 0f2b 203f 01fa 0c3f 730f bbbc e8dd 213f
00000320: 50f4 41bd cf98 953e 10a7 f03c a0f0 ee3e
00000330: 9f25 3dbe f26a 89be 5b01 8ebd d538 23bf
00000340: 68e5 17bf 5060 39bf ddb3 a0be 1ab0 1fbf
00000350: 739c 0c3e 6036 493e 6818 933c d43c bd3e
00000360: 2670 2bbe d9fd 803e 89dd f13e af6a 5e3e
00000370: 8b0b 883d 3517 cf3e 491b aabe c48b ae3d
00000380: 88e9 8cbf bfb0 acbf 6393 5dbf 593f 19bf
00000390: af34 d83e d4f4 6bbc a5e8 a43d dfc1 69bf
000003a0: dd41 48bf 58e8 d6be 77b0 31be bc31 843f
000003b0: b912 ccbe 7e82 063d aa3d 7dbe 0db0 f13d
000003c0: 7e4a 4abf 9b51 c1be d0bc 4abe 8cf5 29be
000003d0: c84c 553f 78cc 323f 7f10 343f f9ce 2c3f
000003e0: a458 a43f 9fbd 143f b2c8 613d e675 643e
000003f0: b207 0d3c 2462 bbbe a384 5ebd 8bd4 a3be

conv6.bias f4 [16]
0.77909255 -0.06260294 -0.5480975 0.04881144 -0.3414623 0.11717351 0.16760258 0.66258687
0.38578504 0.13983487 0.21110633 -0.110528946 0.40836215 -0.028312208 0.32999337 0.25728267
00000000: 9c72 473f f835 80bd 1e50 0cbf 81ee 473d
00000010: 26d4 aebe aaf8 ef3d 03a0 2b3e 4b9f 293f
00000020: 9e85 c53e df30 0f3e 422c 583e 005d e2bd
00000030: d814 d13e 01ef e7bc e4f4 a83e 8eba 833e

bn1.weight f4 [8]
1.2919539 1.695846 1.4808481 1.0965074 1.8839191 0.8621975 0.99533606 1.1700717
00000000: bf5e a53f 7b11 d93f 6e8c bd3f 5b5a 8c3f
00000010: 4324 f13f fab8 5c3f 58ce 7e3f e9c4 953f

bn1.bias f4 [8]
1.5172461 -0.091059744 0.16315342 0.28685236 -0.018217197 0.06422008 -0.21516943 0.53817236
00000000: 1f35 c23f 887d babd b111 273e 50de 923e
00000010: 3b3c 95bc d185 833d 6055 5cbe aac5 093f

bn1.running_mean f4 [8]
0.284939 0.3352734 -1.2637167 -0.44882855 -0.3302219 -0.7118779 0.30373555 0.10331738
00000000: 86e3 913e f5a8 ab3e 78c1 a1bf dbcc e5be
00000010: d812 a9be a13d 36bf 3a83 9b3e 1098 d33d

bn1.running_var f4 [8]
2.06974 10.035932 6.966496 4.0615206 8.575248 2.0298927 5.4422975 4.1374044
00000000: 9f76 0440 2d93 2041 89ed de40 faf7 8140
00000010: 3734 0941 c3e9 0140 4d27 ae40 9e65 8440

bn2.weight f4 [16]
0.8219832 1.245139 1.3762541 1.213135 1.6532813 1.653299 1.1572396 1.3076996
1.3205985 1.4147873 1.2518928 1.3417729 1.1082026 1.2842488 1.5508679 1.4974489
00000000: 7e6d 523f b760 9f3f 1829 b03f 0248 9b3f
00000010: b99e d33f 4d9f d33f 6d20 943f b362 a73f
00000020: 5f09 a93f c017 b53f 063e a03f 37bf ab3f
00000030: 95d9 8d3f 4462 a43f d782 c63f 68ac bf3f

bn2.bias f4 [16]
0.056132264 -0.58759505 -0.8199155 -0.5893837 0.11563601 -0.61105675 -0.81467056 -0.8473878
-0.91995734 -0.09037065 -0.3548011 -0.1605119 -0.3323238 0.19143221 -0.15004529 -0.47405398
00000000: f2ea 653d a16c 16bf fbe5 51bf dae1 16bf
00000010: 93d2 ec3d 376e 1cbf 408e 50bf 68ee 58bf
00000020: 5382 6bbf 3f14 b9bd 7da8 b5be 3b5d 24be
00000030: 5826 aabe ce06 443e 79a5 19be 34b7 f2be

bn2.running_mean f4 [16]
-4.4914403 -3.7392077 -4.0463824 2.048278 -5.8138895 -0.20609787 -6.4157276 -3.065775
-7.640257 9.146514 -6.083555 4.56631 -6.1517134 7.868593 -3.5567186 -3.169778
00000000: e1b9 8fc0 2e4f 6fc0 f77b 81c0 fd16 0340
00000010: 620b bac0 520b 53be a44d cdc0 a835 44c0
00000020: fc7c f4c0 1f58 1241 7cac c2c0 361f 9240
00000030: d6da c4c0 84cb fb40 47a1 63c0 a5dd 4ac0

bn2.running_var f4 [16]
10.336299 17.486326 24.696115 19.931808 29.10309 35.609562 11.679739 21.292397
16.191616 32.456112 32.52184 36.014656 14.746055 50.41388 16.620047 57.202976
00000000: 7b61 2541 ffe3 8b41 a591 c541 5874 9f41
00000010: 21d3 e841 3170 0e42 36e0 3a41 d456 aa41
00000020: 6e88 8141 0fd3 0142 5d16 0242 020f 1042
00000030: d7ef 6b41 d0a7 4942 dbf5 8441 d9cf 6442

bn3.weight f4 [16]
1.2836797 1.3181747 1.0016958 1.9500631 1.4284391 1.0000107 1.8230371 1.3351376
1.990718 1.0700556 1.2534802 1.7935686 1.53632 1.1513957 1.3033506 1.2637749
00000000: 9e4f a43f f3b9 a83f 9137 803f ab9b f93f
00000010: 18d7 b63f 5a00 803f 4859 e93f cae5 aa3f
00000020: d9cf fe3f 95f7 883f 0a72 a03f a893 e53f
00000030: 22a6 c43f ef60 933f 31d4 a63f 60c3 a13f

bn3.bias f4 [16]
-0.89321965 0.55160356 -0.19902337 -0.25444168 -0.90410113 0.49068922 -0.14566055 -0.6999277
-0.5019274 -0.28028366 -0.71794164 -0.4543291 0.033491146 0.08684044 -0.48351267 -0.6358604
00000000: 0baa 64bf e435 0d3f c8cc 4bbe 2e46 82be
00000010: 2c73 67bf 9e3b fb3e 0a28 15be 762e 33bf
00000020: 507e 00bf 5781 8fbe 06cb 37bf d39d e8be
00000030: 032e 093d 67d9 b13d f98e f7be bfc7 22bf

bn3.running_mean f4 [16]
2.6303415 -1.6770747 -4.1285076 -3.6232398 -7.4767923 4.5452037 -19.863752 -5.16564
-26.843006 -3.2954347 9.4898 -5.0530977 -5.968127 -1.410275 0.047767133 -2.9633732
00000000: 8457 2840 62aa d6bf bc1c 84c0 29e3 67c0
00000010: e241 efc0 4f72 9140 f7e8 9ec1 ec4c a5c0
00000020: 7abe d6c1 67e8 52c0 39d6 1741 fab2 a1c0
00000030: e5fa bec0 e483 b4bf 78a7 433d e8a7 3dc0

bn3.running_var f4 [16]
97.10897 127.81175 115.408264 160.13513 144.29146 127.39654 201.79366 92.097046
245.16588 76.64028 131.92476 171.62473 150.71057 128.26367 130.90775 164.59332
00000000: cb37 c242 9e9f ff42 08d1 e642 9822 2043
00000010: 9d4a 1043 07cb fe42 2dcb 4943 b031 b842
00000020: 772a 7543 d347 9942 bdec 0343 ee9f 2b43
00000030: e8b5 1643 8043 0043 62e8 0243 e497 2443

bn4.weight f4 [16]
1.1145561 1.899548 1.4712263 1.0749005 1.0223376 1.2564716 1.3825406 1.0952327
1.5637567 1.503789 1.1174419 0.9472578 1.3668194 1.5994893 1.6448271 1.4456565
00000000: c6a9 8e3f 6424 f33f 2551 bc3f 5796 893f
00000010: f5db 823f 10d4 a03f 17f7 b03f 9630 8c3f
00000020: 2e29 c83f 287c c03f 5608 8f3f 7d7f 723f
00000030: f0f3 ae3f 11bc cc3f b289 d23f 460b b93f

bn4.bias f4 [16]
-1.118101 -0.7476806 -0.96134496 -0.20099427 -0.24212044 -0.48851708 -0.25928223 -0.91064805
-0.63624376 -0.48415437 -0.34959152 -0.55303854 -0.33977255 -0.23047842 -0.938461 -0.4637305
00000000: ef1d 8fbf ff67 3fbf b41a 76bf 71d1 4dbe
00000010: 6cee 77be e91e fabe a4c0 84be 3b20 69bf
00000020: dfe0 22bf 15e3 f7be a9fd b2be ef93 0dbf
00000030: abf6 adbe 8902 6cbe fb3e 70bf 166e edbe

bn4.running_mean f4 [16]
0.75714266 -7.496192 -8.785613 -5.4352922 -5.9890404 -7.8551292 -1.9104728 3.4102705
-0.39113057 -4.8121786 -11.973371 -7.4653454 0.6429808 3.0773919 -1.4247534 -11.561394
00000000: 1ad4 413f cee0 efc0 df91 0cc1 eaed adc0
00000010: 38a6 bfc0 385d fbc0 5f8a f4bf df41 5a40
00000020: 4442 c8be 5efd 99c0 ed92 3fc1 1ce4 eec0
00000030: 649a 243f fdf3 4440 525e b6bf 78fb 38c1

bn4.running_var f4 [16]
56.094902 101.21184 53.591404 57.061897 62.14983 79.63931 96.300674 50.86568
88.152916 80.53891 95.826225 84.82377 79.81922 114.384995 70.98253 79.56206
00000000: 2e61 6042 766c ca42 995d 5642 623f 6442
00000010: 6d99 7842 5447 9f42 f299 c042 7576 4b42
00000020: 4b4e b042 ec13 a142 07a7 bf42 c5a5 a942
00000030: 71a3 9f42 1ec5 e442 0ef7 8d42 c61f 9f42

bn5.weight f4 [16]
1.5523926 1.5395358 1.0034155 1.1765139 1.2934542 1.555478 1.5264717 1.1788551
1.3252318 1.5575429 1.7221675 1.7250079 1.1725736 1.4233767 1.3332645 1.1740483
00000000: cdb4 c63f 820f c53f eb6f 803f 0298 963f
00000010: e88f a53f e719 c73f 6d63 c33f b9e4 963f
00000020: 32a1 a93f 915d c73f fc6f dc3f 0fcd dc3f
00000030: e416 963f 3531 b63f 69a8 aa3f 3747 963f

bn5.bias f4 [16]
-0.31811795 -0.11069878 -0.1282283 -0.29732454 -0.059225097 -0.33244064 0.14884152 -0.7396752
0.42217022 -0.5043926 -0.9324846 -0.2681684 -0.14854692 -0.6928196 -0.504412 0.34627914
00000000: 5be0 a2be 0bb6 e2bd 484e 03be ec3a 98be
00000010: 0496 72bd a935 aabe e969 183e 5b5b 3dbf
00000020: b226 d83e e01f 01bf 50b7 6ebf 5e4d 89be
00000030: af1c 18be a05c 31bf 2521 01bf 804b b13e

bn5.running_mean f4 [16]
3.2311518 -9.407952 -3.028776 -19.702648 9.052089 7.189798 -5.1247416 -0.18032767
16.590466 1.4972328 -20.023832 3.432909 -1.7122763 7.193816 -3.5756898 2.040112
00000000: 31cb 4e40 f986 16c1 77d7 41c0 069f 9dc1
00000010: 5bd5 1041 d312 e640 e2fd a3c0 d1a7 38be
00000020: 46b9 8441 53a5 bf3f cf30 a0c1 c8b4 5b40
00000030: df2b dbbf be33 e640 1ad8 64c0 3291 0240

bn5.running_var f4 [16]
91.03691 111.68108 54.050156 105.193 107.08691 128.76045 141.88795 59.761444
96.90713 98.069626 142.80104 89.460205 90.718315 74.07046 69.73926 67.46144
00000000: e612 b642 b75c df42 5c33 5842 d162 d242
00000010: 7f2c d642 adc2 0043 51e3 0d43 b80b 6f42
00000020: 73d0 c142 a623 c442 11cd 0e43 a0eb b242
00000030: c76f b542 1324 9442 807a 8b42 42ec 8642

bn6.weight f4 [16]
1.8167597 2.1486087 2.1528218 2.22282 1.8705469 1.9198489 1.7398711 2.317172
1.5806798 2.0809572 1.9987516 2.1505163 1.9490223 1.9207824 2.1165152 2.505439
00000000: 958b e83f ce82 0940 d5c7 0940 af42 0e40
00000010: 156e ef3f 9cbd f53f 19b4 de3f 8c4c 1440
00000020: b753 ca3f 672e 0540 18d7 ff3f 0fa2 0940
00000030: 9079 f93f 33dc f53f fc74 0740 1d59 2040

bn6.bias f4 [16]
0.33221498 0.07271766 -0.12215081 0.12398073 0.46382424 0.5452038 0.005730521 -0.4533731
0.48352876 0.3000405 -0.09407075 0.22624251 0.32320017 0.40774214 0.12240634 0.23685065
00000000: 1518 aa3e ffec 943d 342a fabd 9ce9 fd3d
00000010: 5f7a ed3e 7a92 0b3f 18c7 bb3b 8520 e8be
00000020: 1591 f73e e99e 993e 2aa8 c0bd 1eac 673e
00000030: 7e7a a53e 94c3 d03e 2db0 fa3d fa88 723e

bn6.running_mean f4 [16]
1.4763296 -0.8126465 -1.5813195 -0.014805758 1.7928734 0.9529968 -1.4373109 -0.9308154
1.6829035 2.2751536 -1.3027222 -2.5039933 1.5995368 3.8831294 -2.0270073 0.4176435
00000000: 5ef8 bc3f 9a09 50bf ad68 cabf da93 72bc
00000010: e07c e53f 99f7 733f cef9 b7bf eb49 6ebf
00000020: 6269 d73f 1e9c 1140 9abf a6bf 6d41 20c0
00000030: 9fbd cc3f 3185 7840 7dba 01c0 5ed5 d53e

bn6.running_var f4 [16]
32.971474 41.870506 42.455856 48.704502 40.293316 38.09163 35.92905 48.589355
34.989353 38.060257 43.720493 43.574795 27.790108 33.707893 35.969604 47.523083
00000000: cae2 0342 667b 2742 ccd2 2942 69d1 4242
00000010: 5b2c 2142 d45d 1842 59b7 0f42 805b 4242
00000020: 19f5 0b42 b43d 1842 c9e1 2e42 974c 2e42
00000030: 2452 de41 e2d4 0642 e0e0 0f42 a317 3e42

fc.weight f4 [10, 16]
-1.110913 0.61412144 -1.2562085 0.49215987 0.2640753 0.46227512 -0.5400138 0.82601935
0.5850476 -2.104875 0.6583581 -1.4493735 -1.2655599 0.53514344 0.45485055 -1.3164777
-0.9412963 -1.5025119 1.0583072 -0.5047604 0.20767839 -1.0978031 0.70933145 0.7509743
-1.492114 -1.0306689 0.77445745 0.27383393 0.31145477 -1.5566545 -0.76690257 0.3036788
0.7209263 -0.60836643 -0.973962 -0.94249225 0.8998233 0.14908832 -0.8636156 -1.1584641
-0.49984953 -1.1902312 0.9789097 0.82136136 -0.7215671 -1.5468953 0.31258863 -1.17787
-1.114024 -0.5867563 0.37313715 -1.166297 -1.5015604 0.7130335 -0.8036004 -1.0763316
-1.2878091 -0.07065674 -1.1000867 0.89559084 -0.83740944 -0.54591495 0.9007223 0.7307386
0.51205486 -1.161664 0.6867711 0.79589224 0.6450728 -1.0860521 0.7244982 -0.6176493
0.5384536 0.6264413 -0.7765651 -0.9615349 -0.38490143 -1.1097971 -1.1093955 -1.280885
-0.49035093 0.7518697 0.54888344 -0.9429864 -0.85904896 -0.6253297 -0.40244347 -0.9093706
-0.69774127 0.66103184 -0.30643764 -0.7985617 -0.62307423 0.7313911 -0.2015047 0.6542214
0.50576514 0.36901492 -1.0415548 -1.1819217 0.92397106 -0.8599306 -0.23028289 0.78490996
0.6799891 -1.1141161 -1.1383574 -0.86160153 -1.1215271 0.840168 -1.9049135 0.53516114
-0.5611446 -1.0187747 0.13706388 0.5918754 -1.1953839 -1.7535248 -1.1646473 0.023948597
0.2609669 0.58366215 0.75140375 0.671528 0.58004314 -1.0516714 0.5071673 -1.4468161
0.48494723 0.6797866 -1.119359 -0.48696616 -0.5805223 0.5967445 0.8059813 -1.2813091
0.4585696 -0.6696769 -0.95250493 0.18573762 0.52791744 -0.16048113 -0.57426965 -0.25118196
-0.8987817 -0.8128997 -0.63889414 0.6733675 0.48922893 0.5181185 -0.48966178 -0.86955136
-0.85298365 0.72418 -0.75253725 -1.0109797 0.65062916 0.34831518 -0.82503796 -0.7924152
00000000: 6632 8ebf 1037 1d3f 71cb a0bf 61fc fb3e
00000010: e134 873e 53af ec3e 583e 0abf 0176 533f
00000020: aec5 153f 46b6 06c0 288a 283f 1285 b9bf
00000030: defd a1bf 29ff 083f 2ce2 e83e 5782 a8bf
00000040: cbf8 70bf 4f52 c0bf 9c76 873f fa37 01bf
00000050: a5a9 543e d084 8cbf bf96 353f da3f 403f
00000060: 97fd bebf f5ec 83bf d842 463f f633 8c3e
00000070: 0077 9f3e 7440 c7bf ba53 44bf ca7b 9b3e
00000080: a08e 383f e7bd 1bbf 9355 79bf 2c47 71bf
00000090: d25a 663f 9caa 183e e915 5dbf 8d48 94bf
000000a0: 47ec ffbe 7f59 98bf d399 7a3f bd44 523f
000000b0: 9fb8 38bf aa00 c6bf 9e0b a03e 72c4 96bf
000000c0: 5798 8ebf a935 16bf d50b bf3e 3849 95bf
000000d0: 2233 c0bf 5d89 363f c1b8 4dbf 3cc5 89bf
000000e0: eed6 a4bf 7bb4 90bd a4cf 8cbf 7145 653f
000000f0: 7760 56bf 15c1 0bbf bd95 663f af11 3b3f
00000100: 0716 033f 68b1 94bf 3bd0 2f3f 98bf 4b3f
00000110: 7e23 253f c103 8bbf b778 393f 441e 1ebf
00000120: 18d8 093f 755e 203f f8cc 46bf 2727 76bf
00000130: cd11 c5be d50d 8ebf ac00 8ebf 0af4 a3bf
00000140: 470f fbbe 887a 403f a083 0c3f 8f67 71bf
00000150: a2ea 5bbf 9b15 20bf 120d cebe 83cc 68bf
00000160: 2c9f 32bf 6239 293f 65e5 9cbe 8a6e 4cbf
00000170: cb81 1fbf 723c 3b3f 4057 4ebe 0e7b 273f
00000180: d379 013f 86ef bc3e ab51 85bf 3649 97bf
00000190: 5e89 6c3f 6924 5cbf 47cf 6bbe dcef 483f
000001a0: c413 2e3f 5b9b 8ebf b2b5 91bf eb91 5cbf
000001b0: 338e 8fbf 4015 573f 35d4 f3bf 5200 093f
000001c0: 2ca7 0fbf 3667 82bf 795a 0c3e 2585 173f
000001d0: 5702 99bf 8073 e0bf 2a13 95bf d92f c43c
000001e0: 749d 853e e26a 153f ff5b 403f 42e9 2b3f
000001f0: b57d 143f 2b9d 86bf b7d5 013f 4531 b9bf
00000200: 014b f83e 7f06 2e3f 2847 8fbf a153 f9be
00000210: 1c9d 14bf 3fc4 183f ca54 4e3f f001 a4bf
00000220: a2c9 ea3e f26f 2bbf 5dd7 73bf 0132 3e3e
00000230: 9925 073f 2a55 24be 5603 13bf ec9a 80be
00000240: 8f16 66bf 321a 50bf 918e 23bf d061 2c3f
00000250: 377c fa3e 6aa3 043f f3b4 fabe eb9a 5ebf
00000260: 235d 5abf dc63 393f 48a6 40bf c867 81bf
00000270: a28f 263f 5e56 b23e b035 53bf b9db 4abf

fc.bias f4 [10]
-1.1895585 0.14408578 0.6269508 0.42135948 -0.52350473 0.35496983 -0.8220807 -0.2091956
0.00031834983 0.8864598
00000000: 7443 98bf 398b 133e d97f 203f 6ebc d73e
00000010: 6804 06bf 9bbe b53e e173 52bf 5f37 56be
00000020: 31e8 a639 08ef 623f
